project3/AIProject3/project3/model.pth (torch, 538695 bytes, 6 tensors)

linear_relu_stack.0.weight f4 [256, 256]
0.022555176 -0.05734163 0.019216757 -0.07033315 0.017508836 0.03464794 -0.03325945 0.015114738
0.030480959 -0.016015269 -0.029200234 0.049292494 -0.0283686 -0.021105275 0.0075182086 -0.042306963
0.034377605 0.042531714 -0.032934632 0.0046501555 -0.0034853925 -0.043823257 0.0018654802 -0.03424395
0.031244997 -0.011696038 -0.018452007 0.04429528 -0.020826736 0.03695543 -0.055077624 0.038412504
0.036253646 -0.029999685 0.003992153 0.03499336 -0.029071294 0.06309546 -0.011432624 0.052007534
0.04735737 0.01667686 0.03876057 0.037841942 0.027658569 0.0072888285 -0.010758783 -0.0025114093
0.0137900375 0.04377833 0.020824242 -0.053384036 -0.054030087 -0.03204596 -0.008532242 0.026826054
-0.052350067 0.05382057 -0.014439537 -0.034311153 -0.010053541 -0.0519998 -0.0053835567 0.024914712
-0.04526192 0.038903654 -0.052214116 0.02613428 -0.03093141 0.018255387 0.039187558 -0.051312413
0.021745084 0.023303453 0.0077403807 0.04745868 0.04627837 0.034211457 -0.0103040105 0.024740545
-0.025609193 0.041553833 -0.042341016 0.047253557 0.013626758 -0.024691453 0.02796095 -0.017134182
-0.047011342 -0.0007548207 -0.046393428 -0.015058552 0.0066818446 -0.018824859 -0.033751115 -0.02696203
-0.017400442 0.016706876 0.03494701 0.018891895 0.0272008 0.07398781 -0.024783127 -0.0507949
-0.04947189 -0.031588465 0.014520911 0.0419659 -0.05261338 0.06050113 0.039591167 -0.023305815
-0.032606456 0.024706818 -0.05853527 -0.024200536 0.00045963912 0.011671221 0.0151952095 -0.05728337
-0.043586418 0.037710655 0.01478206 0.05515715 0.06442363 -0.033360317 0.00438433 0.07753044
0.021693861 -0.062004916 0.05097674 -0.052853364 -0.057388745 0.009204453 0.030847363 -0.020246362
0.04267189 -0.045540117 -0.019880928 0.061612688 0.0059534973 0.060625184 -0.007984453 -0.027653
0.06870013 0.0028582723 -0.064293824 0.03362012 -0.01010221 -0.040706884 0.05446197 -0.06050072
0.02322587 -0.0049873437 -0.05365204 0.035580322 0.0147864595 -0.047402382 0.013744729 0.04695915
0.029930053 -0.007374387 0.063613154 -0.029031456 -0.020311503 -0.0048040897 0.006882127 -0.058965653
0.03203044 -0.039684918 0.031036561 -0.0722145 0.034711115 0.053018995 -0.010510918 0.041312177
0.026943758 -0.02007023 -0.07406434 -0.0022589462 0.012434329 -0.03265647 0.04300114 -0.030365422
0.027331458 0.02557791 -0.024226516 -0.036192015 -0.03711243 0.044692658 0.0057608765 0.0030377498
0.02089195 -0.011235421 0.055008583 -0.018205067 -0.058125854 0.06374373 0.0032156238 -0.03026695
0.019260379 0.014450369 -0.00012606352 -0.044066478 0.045509856 -0.02120785 0.030189857 0.012738006
-0.02276699 0.054588884 -0.030862594 -0.063466445 0.024303403 0.021154787 -0.039359998 -0.00011312726
0.03965175 -0.02112754 0.044187974 -0.06486991 0.022648934 0.06198143 0.06005037 0.018942345
0.019583834 -0.031018365 -0.05180214 0.027161129 -0.039367024 -0.005178487 -0.025317023 -0.00012987586
0.0028470652 -0.0004996257 0.05866481 0.038865842 0.029453838 -0.047920905 0.04164144 -0.029725736
0.054122485 -0.045501973 -0.026907044 0.02232813 -0.041428935 -0.030711042 -0.015695484 0.008675246
-0.049008153 -0.03613357 -0.025491444 0.028642602 -0.062937975 0.028119704 0.0053752526 -0.0130051905
00000000: a2c5 b83c 0fdf 6abd 766c 9d3c d40a 90bd
00000010: b16e 8f3c 00eb 0d3d 103b 08bd cea3 773c
00000020: 34b3 f93c 7432 83bc 5435 efbc ede6 493d
00000030: 4465 e8bc f8e4 acbc 4e5b f63b 114a 2dbd
00000040: 88cf 0c3d bc35 2e3d 77e6 06bd 5560 983b
00000050: 2f6b 64bb 0480 33bd 2183 f43a 6243 0cbd
00000060: 82f5 ff3c bda0 3fbc aa28 97bc f86e 353d
00000070: d59c aabc 945e 173d 1399 61bd 6e56 1d3d
00000080: b47e 143d e6c1 f5bc 9bd0 823b 3355 0f3d
00000090: ec26 eebc 3138 813d e74f 3bbc da05 553d
000000a0: cdf9 413d e99d 883c 67c3 1e3d 2700 1b3d
000000b0: 3994 e23c 20d7 ee3b 9b45 30bc 7596 24bb
000000c0: 9cef 613c e850 333d 9a97 aa3c 38a9 5abd
000000d0: a74e 5dbd a042 03bd d1ca 0bbc 50c2 db3c
000000e0: 066d 56bd f572 5c3d cf93 6cbc da89 0cbd
000000f0: 9bb7 24bc befd 54bd 8c68 b0bb f019 cc3c
00000100: 9064 39bd 7059 1f3d 78de 55bd 8f17 d63c
00000110: de63 fdbc 528c 953c 2283 203d f72c 52bd
00000120: bf22 b23c e2e6 be3c 05a3 fd3b 0864 423d
00000130: 638e 3d3d 5021 0c3d 27d2 28bc afac ca3c
00000140: 5fca d1bc 5a34 2a3d c66d 2dbd f28c 413d
00000150: c442 5f3c bb45 cabc 5d0e e53c fc5c 8cbc
00000160: f78e 40bd 29df 45ba 0907 3ebd 25b8 76bc
00000170: 60f3 da3b 9736 9abc 9c3e 0abd 7adf dcbc
00000180: 5f8b 8ebc dcdc 883c 9924 0f3d 2dc3 9a3c
00000190: 36d4 de3c ec86 973d fc05 cbbc 500e 50bd
000001a0: 09a3 4abd e862 01bd 1de9 6d3c 70e4 2b3d
000001b0: 2181 57bd 08d0 773d 592a 223d d6eb bebc
000001c0: 598e 05bd f465 ca3c aec2 6fbd 3440 c6bc
000001d0: b8fb f039 a638 3f3c 54f5 783c f8a1 6abd
000001e0: ac87 32bd 7d76 1a3d 7430 723c 77ec 613d
000001f0: 89f0 833d d4a4 08bd 6daa 8f3b 48c8 9e3d
00000200: 53b7 b13c def8 7dbd fccc 503d c57c 58bd
00000210: 7610 6bbd 46ce 163c 9cb3 fc3c b3db a5bc
00000220: b8c8 2e3d 4688 3abd 54dd a2bc 965d 7c3d
00000230: 8e15 c33b 1d52 783d 39d1 02bc 8b88 e2bc
00000240: a7b2 8c3d da51 3b3b 7bac 83bd 40b5 093d
00000250: bd83 25bc 43bc 26bd 8413 5f3d 9acf 77bd
00000260: 2e44 be3c df6c a3bb 3ec2 5bbd acbc 113d
00000270: e842 723c 0029 42bd 9231 613c 3d58 403d
00000280: df2f f53c d7a4 f1bb 9d47 823d 60d3 edbc
00000290: 4f64 a6bc a06b 9dbb 7783 e13b f885 71bd
000002a0: 5a32 033d a78c 22bd 6340 fe3c 32e5 93bd
000002b0: 3e2d 0e3d 722a 593d fc35 2cbc f536 293d
000002c0: 28b9 dc3c 536a a4bc 0baf 97bd d40a 14bb
000002d0: 5bb9 4b3c cac2 05bd f721 303d e8c0 f8bc
000002e0: 39e6 df3c c488 d13c b076 c6bc 143e 14bd
000002f0: 3403 18bd a60f 373d bcc5 bc3b fc14 473b
00000300: 9825 ab3c c514 38bc ae50 613d cb22 95bc
00000310: 6015 6ebd 138c 823d 37bd 523b 65f2 f7bc
00000320: f1c7 9d3c 3ec1 6c3c eb2f 04b9 0d7f 34bd
00000330: 8b68 3a3d 16bc adbc b850 f73c 12b3 503c
00000340: d781 babc 9898 5f3d 8dd3 fcbc b2fa 81bd
00000350: ee17 c73c ce4c ad3c f337 21bd bc3e edb8
00000360: e069 223d aa13 adbc 73fe 343d 84da 84bd
00000370: 428a b93c 3de0 7d3d 60f7 753d fa2c 9b3c
00000380: 476e a03c 3a1a febc 7b2e 54bd 0481 de3c
00000390: 513f 21bd 4cb0 a9bb a565 cfbc 492f 08b9
000003a0: d495 3a3b 50f9 02ba 834a 703d ca31 1f3d
000003b0: 2d49 f13c b648 44bd 3790 2a3d 6383 f3bc
000003c0: 8aaf 5d3d 4760 3abd 296c dcbc 7ce9 b63c
000003d0: 63b1 29bd b995 fbbc d193 80bc 9e22 0e3c
000003e0: c6bc 48bd cb00 14bd 6fd3 d0bc e4a3 ea3c
000003f0: a0e5 80bd 4b5b e63c e322 b03b b913 55bc

linear_relu_stack.0.bias f4 [256]
-0.027488846 0.013859323 0.06151543 -0.005207258 -0.05470329 -0.060979262 -0.0015001076 -0.03252963
-0.012654172 0.015254326 -0.06075466 0.043642245 0.06158123 0.0055512837 0.055427026 0.04626008
-0.007248007 0.038302016 0.04803953 0.056461874 -0.006063644 0.034602374 -0.0003070083 -0.012685085
-0.053550866 0.021713225 -0.0061394623 0.04591842 0.059189804 -0.012616187 -0.00328504 0.027050553
0.0076007713 -0.03653968 0.010915011 -0.052829944 -0.044039074 0.057208184 -0.011101368 -0.034357756
0.01744317 -0.057889402 0.02715338 0.0133164255 -0.042810466 0.050991114 -0.035488497 0.0031244613
0.018078838 0.054029975 0.0530044 -0.024648596 -0.03742156 5.28967e-05 0.030110981 0.021997213
0.044832256 -0.029984483 -0.05908928 0.03204146 0.057644695 0.05974814 -0.025064979 0.03153743
0.014805625 0.0002802194 -0.030542029 0.002059235 -0.013683785 -0.03628421 -0.03935723 0.03645643
-0.02207246 -0.0039406377 -0.039425027 -0.008478363 0.05563825 -0.044802573 0.044466708 -0.0038801748
-0.056824427 -0.034431018 0.05011782 0.009188236 -0.053205453 -0.036457814 -0.0315809 -0.05997691
-0.054954305 0.013195251 0.037886415 -0.05134279 -0.014211228 0.05920635 -0.055796348 0.046463523
-0.05677491 0.044487365 0.02678645 0.025467502 0.00835556 -0.03746924 -0.039233908 0.030665385
-0.0037356375 -0.048226345 -0.02820471 -0.034669433 -0.02382392 -0.0093957875 0.04050559 0.0027042476
0.033355083 0.013191026 0.024774168 -0.053104054 -0.023749268 -0.026722837 -0.05389154 -0.057507426
0.0051790974 0.03485327 0.055994667 0.027260803 -0.033833858 -0.004591549 -0.021883925 -0.03954027
-0.046544142 0.059438355 0.01811593 0.023195146 -0.05836512 0.014731352 0.011807385 -0.015237854
-0.058779288 0.022876857 0.024762454 0.028767712 0.041738834 0.014397037 -0.00051826885 -0.036423374
0.012058917 -0.015493428 -0.0064195036 -0.041294064 0.044997104 0.04593135 0.028729042 0.04654075
0.0060904156 0.019461969 -0.036188368 0.0137915 0.011700667 0.009905483 0.059482623 -0.031469993
0.008195216 0.029270457 0.06047387 0.03334949 -0.011659655 -0.035352655 -0.043208983 -0.047912158
6.376499e-05 0.009852748 -0.0531099 -0.03642032 -0.047260746 -0.054561615 -0.03437909 -0.041012127
0.016804934 -0.044937816 -0.02981848 -0.01481994 0.039162166 -0.052912388 -0.012970236 0.059007417
-0.05369811 0.053629547 0.041336723 0.01847487 0.031103631 -0.022439262 0.0128826285 0.062043823
0.01979189 0.062208883 -0.023378238 0.018770909 -0.024464833 0.017372988 -0.058307625 -0.020603653
0.028404614 0.011109141 -0.051669203 -0.025877899 0.031384226 0.061581925 -0.024856985 0.032146044
0.009021737 0.012761605 -0.024608186 -0.038645364 -0.004534883 0.0012911279 -0.011351901 0.052868698
0.030398294 -0.026439551 0.034494802 -0.028589342 -0.003995425 -0.005559833 -0.008003389 0.029768577
-0.04422482 -0.0023496943 -0.022853887 -0.024553053 0.040881824 0.05983778 -0.008801789 -0.050968412
-0.058039956 0.03733354 -0.049821377 -0.014464164 0.05118636 -0.047831476 0.014158972 -0.019847266
0.019520609 0.013172207 -0.051841233 0.0029430434 0.012899573 0.04606708 0.05636039 0.031281173
-0.049846273 -0.01539374 -0.04058829 0.04031698 0.018147744 -0.03509103 -0.043015264 0.017302593
00000000: 4a30 e1bc 3712 633c 9bf7 7b3d a5a1 aabb
00000010: 8f10 60bd 64c5 79bd 429f c4ba ca3d 05bd
00000020: 7253 4fbc 48ed 793c e1d9 78bd 36c2 323d
00000030: 9a3c 7c3d 8be7 b53b 7307 633d 367b 3d3d
00000040: b180 edbb 93e2 1c3d 19c5 443d 9144 673d
00000050: 88b1 c6bb 38bb 0d3d f5f5 a0b9 1ad5 4fbc
00000060: 2758 5bbd efdf b13c 8b2d c9bb f414 3c3d
00000070: 0271 723d 20b4 4ebc d349 57bb 1f99 dd3c
00000080: e40f f93b a2aa 15bd e0d4 323c 3664 58bd
00000090: 5162 34bd 2153 6a3d 83e2 35bc b8ba 0cbd
000000a0: fbe4 8e3c 701d 6dbd c470 de3c 232d 5a3c
000000b0: 075a 2fbd 0fdc 503d 635c 11bd c3c3 4c3b
000000c0: 121a 943c 894e 5d3d 241b 593d daeb c9bc
000000d0: 5a47 19bd 66dd 5d38 4eab f63c 8033 b43c
000000e0: 07a2 373d 05a2 f5bc 9a07 72bd e83d 033d
000000f0: d81c 6c3d 77ba 743d 1255 cdbc 642d 013d
00000100: 4b93 723c 69ea 9239 4733 fabc 3bf4 063b
00000110: f431 60bc c09e 14bd 0c35 21bd 5653 153d
00000120: 4ed1 b4bc 7720 81bb 237c 21bd d5e8 0abc
00000130: efe4 633d e782 37bd b922 363d 884a 7ebb
00000140: bbc0 68bd 8a07 0dbd 5848 4d3d 418a 163c
00000150: f6ed 59bd ca54 15bd f95a 01bd 59aa 75bd
00000160: c417 61bd e530 583c c92e 1b3d d14c 52bd
00000170: 36d6 68bc 5c82 723d b68a 64bd 8950 3e3d
00000180: cf8c 68bd 6238 363d 426f db3c 39a1 d03c
00000190: c2e5 083c 5979 19bd bcb3 20bd f935 fb3c
000001a0: 99d1 74bb fd88 45bd 900d e7bc 8901 0ebd
000001b0: 622a c3bc caf0 19bc 31e9 253d bf39 313b
000001c0: 579f 083d 2c1f 583c 32f3 ca3c a383 59bd
000001d0: d38d c2bc dae9 dabc 60bd 5cbd e88c 6bbd
000001e0: 6bb5 a93b 4dc2 0e3d aa5a 653d 0c52 df3c
000001f0: 5f95 0abd b474 96bb eb45 b3bc faf4 21bd
00000200: 12a5 3ebd a275 733d dc67 943c bf03 be3c
00000210: 4410 6fbd c55b 713c c373 413c 31a8 79bc
00000220: 8dc2 70bd 3f68 bb3c a1da ca3c 44aa eb3c
00000230: 57f6 2a3d 8de1 6b3c 6fdc 07ba ad30 15bd
00000240: c492 453c 26d8 7dbc b35a d2bb f723 29bd
00000250: e24e 383d 8322 3c3d 2b59 eb3c 83a1 3e3d
00000260: 1c92 c73b b56e 9f3c 413a 14bd bef5 613c
00000270: 28b4 3f3c 9b4a 223c 0da4 733d aee6 00bd
00000280: 3a45 063c 99c8 ef3c 73b3 773d 7a99 083d
00000290: 2308 3fbc f2cd 10bd e7fb 30bd 8a3f 44bd
000002a0: 91b9 8538 6c6d 213c c489 59bd 792d 15bd
000002b0: 7c94 41bd 007c 5fbd 17d1 0cbd 55fc 27bd
000002c0: 80aa 893c b710 38bd e345 f4bc 55cf 72bc
000002d0: 8268 203d a9ba 58bd 1d81 54bc c3b1 713d
000002e0: 8df2 5bbd a8aa 5b3d b250 293d 9c58 973c
000002f0: 0bcd fe3c 8bd2 b7bc a911 533c aa21 7e3d
00000300: 9a22 a23c bece 7e3d b883 bfbc 73c5 993c
00000310: 796a c8bc cc51 8e3c fad3 6ebd fec8 a8bc
00000320: cbb0 e83c 1d03 363c 16a3 53bd e3fd d3bc
00000330: bf8c 003d 543d 7c3d e0a0 cbbc 92ab 033d
00000340: e8cf 133c 0d16 513c 1b97 c9bc 9a4a 1ebd
00000350: 5b99 94bb 103b a93a 53fd 39bc d98c 583d
00000360: d805 f93c c297 d8bc 6c4a 0d3d 3234 eabc
00000370: 0eec 82bb 422f b6bb a620 03bc 3bdd f33c
00000380: 1625 35bd 54fd 19bb 1338 bbbc 7c23 c9bc
00000390: b373 273d 7618 753d 6135 10bc 41c4 50bd
000003a0: 4ebb 6dbd 0eeb 183d 8011 4cbd 1afb 6cbc
000003b0: caa8 513d f0ea 43bd 08fb 673c bc96 a2bc
000003c0: afe9 9f3c 3ed0 573c 7957 54bd 13e0 403b
000003d0: bb58 533c d6b0 3c3d 27da 663d b020 003d
000003e0: 9b2b 4cbd 0636 7cbc e83f 26bd 6b23 253d
000003f0: 94aa 943c 9dbb 0fbd c630 30bd 2bbe 8d3c

linear_relu_stack.2.weight f4 [256, 256]
-0.0552067 -0.07365812 -0.057041883 0.012313076 -0.033725634 -0.031883977 0.05478771 0.03281106
0.010616547 -0.0045988313 -0.018570099 0.003105113 0.054051746 -0.052843343 0.04527841 0.008737691
0.015910795 0.0051073963 0.044622965 -0.054894548 -0.050243624 0.06834897 -0.036580488 -0.052650917
0.0071048974 0.011846616 -0.023141798 0.073238775 -0.028693192 -0.056411523 -0.016443193 -0.028673582
-0.05665318 -0.037545573 0.008795477 0.0029474853 0.042791963 0.06242339 0.0010552119 0.024816243
0.041021433 -0.01819008 0.040559497 -0.02244993 -0.026567923 -0.03323549 -0.025464483 0.05772648
-0.047273017 -0.03537629 -0.044728626 0.017723856 -0.023045188 0.023819488 -0.008306717 -0.04287887
0.002430171 0.06576267 0.005706247 -0.038164992 -0.01829513 -0.018376103 0.021290379 -0.025001984
0.047459096 0.06263818 -0.02365195 -0.048985362 0.030414082 0.065726385 0.044576045 0.00040058946
0.009065386 0.04209932 -0.024949951 0.049186103 0.045426097 0.018739792 0.020617204 0.017287541
0.0467334 0.04390701 -0.016777586 0.034662932 0.06935925 0.043648932 0.0038951593 0.04803779
-0.06371726 0.06668136 -0.047359854 0.05821673 0.032856937 0.03794855 -0.013789509 0.04538835
-0.041729596 0.031022143 0.06951337 0.041324534 -0.016169531 -0.049832027 -0.06535417 0.010419619
-0.034510177 0.036615986 -0.040793873 -0.044963203 -0.04142969 -0.04206368 -0.0102473255 0.046509944
0.03783222 0.04023413 -0.027706964 0.06957999 0.029149339 0.054934707 -0.014074065 -0.008073053
0.03467196 -0.012078364 -0.048447106 0.020669347 0.03182675 0.03902628 0.031826355 -0.062548846
-0.023487488 -0.03373112 0.008483811 -0.016989565 0.04821087 -0.014332606 0.05716327 0.057098195
0.06186827 -0.0062624454 -0.033047624 -0.018746968 0.06952244 0.019558279 -0.00897668 0.034924515
-0.05159145 -0.03251555 -0.021282574 -0.013591785 -0.02033109 0.04903571 -0.06635973 -0.032462634
0.031663727 -0.04009257 0.015172445 0.035421263 0.031705867 -0.030448942 0.04481647 0.020555958
0.0226678 0.07055684 0.06591328 0.05325106 0.044758953 0.071775004 0.06717127 -0.028324472
0.01037888 0.036088314 -0.03423875 0.034536704 0.056069445 0.06287656 -0.010052971 -0.03387758
-0.043730304 0.037753496 -0.04575992 -0.04036508 -0.017620422 -0.026478099 -0.023337215 -0.03497265
-0.004517095 0.055695355 -0.005727713 0.077128835 0.03307675 -0.03667568 0.028393907 -0.03097967
-0.008062453 0.039374076 -0.0037237352 0.008000056 0.025039507 0.017880987 0.030508945 0.0069587515
-0.040281214 -0.020363001 0.024470916 -0.048129145 -0.021411944 0.040515088 -0.014184675 -0.036536604
0.026525915 0.009997058 0.028677542 0.014210526 -0.01281038 0.013788594 0.04615651 -0.032873623
0.0066009387 0.061693866 -0.03527373 0.037924353 0.008014176 -0.035360776 0.029325394 -0.026437938
-0.006798233 0.021541335 -0.027554816 0.0056548943 0.07897297 0.03344758 0.011585811 0.06778705
-0.03190733 -0.0064216196 0.0023646047 -0.034187835 -0.04948799 0.004968618 0.024786329 0.017525332
0.058820385 0.03610592 0.048909064 -0.027194124 0.044836037 0.028369386 -0.052856643 0.055190884
-0.020460663 -0.052597877 -0.02395973 -0.04489982 0.03659369 0.0475318 0.018339885 0.030590335
00000000: 6c20 62bd 12da 96bd c0a4 69bd c9bc 493c
00000010: e423 0abd c698 02bd 1469 603d e464 063d
00000020: 07f1 2d3c cbb1 96bb 5220 98bc 277f 4b3b
00000030: 5d65 5d3d 4372 58bd db75 393d 8828 0f3c
00000040: 5b57 823c f25b a73b 92c6 363d 1bd9 60bd
00000050: 42cc 4dbd 8bfa 8b3d 6cd5 15bd 7da8 57bd
00000060: 33d0 e83b 4f18 423c de93 bdbc 36fe 953d
00000070: fc0d ebbc c50f 67bd e0b3 86bc dce4 eabc
00000080: 2a0d 68bd 63c9 19bd e81a 103c 992a 413b
00000090: a046 2f3d abaf 7f3d 094f 8a3a 6f4b cb3c
000000a0: 1706 283d 5d03 95bc b721 263d eae8 b7bc
000000b0: f9a4 d9bc f021 08bd e49a d0bc 9a72 6c3d
000000c0: 5aa1 41bd bbe6 10bd 5d35 37bd 9f31 913c
000000d0: 43c9 bcbc 1621 c33c e518 08bc c1a1 2fbd
000000e0: 8143 1f3b 94ae 863d 78fb ba3b e552 1cbd
000000f0: abdf 95bc 7b89 96bc 2969 ae3c f6d0 ccbc
00000100: 7864 423d 7248 803d bcc1 c1bc e0a4 48bd
00000110: f426 f93c 8e9b 863d 5f95 363d 3506 d239
00000120: fc86 143c 5670 2c3d d763 ccbc 5e77 493d
00000130: b710 3a3d 3184 993c 69e5 a83c 9a9e 8d3c
00000140: 866b 3f3d d6d7 333d 2671 89bc b8fa 0d3d
00000150: 390c 8e3d 39c9 323d ee45 7f3b 46c3 443d
00000160: 327e 82bd 3d90 883d 68fc 41bd aa74 6e3d
00000170: ff94 063d f06f 1b3d 65ed 61bc 22e9 393d
00000180: a7ec 2abd 2622 fe3c 075d 8e3d ea43 293d
00000190: f775 84bc ab1c 4cbd 68d8 85bd 0db7 2a3c
000001a0: 8b5a 0dbd a5fa 153d 7a17 27bd 562b 38bd
000001b0: 2eb2 29bd f74a 2cbd 66e4 27bc 3681 3e3d
000001c0: f5f5 1a3d 8bcc 243d b7f9 e2bc f47f 8e3d
000001d0: 98ca ee3c 3703 613d e896 66bc d744 04bc
000001e0: 2f04 0e3d 55e4 45bc 7970 46bd c352 a93c
000001f0: c45c 023d 05da 1f3d 5a5c 023d 9c19 80bd
00000200: d568 c0bc a529 0abd afff 0a3c b32d 8bbc
00000210: c378 453d 4fd3 6abc 0824 6a3d ccdf 693d
00000220: 9569 7d3d 3335 cdbb f25c 07bd 3e93 99bc
00000230: c861 8e3d af38 a03c ed12 13bc 020d 0f3d
00000240: 8e51 53bd 062f 05bd cb58 aebc 14b0 5ebc
00000250: 638d a6bc abd9 483d 9ce7 87bd 8af7 04bd
00000260: d3b1 013d 1b38 24bd d995 783c e315 113d
00000270: 03de 013d 0f70 f9bc 7a91 373d f864 a83c
00000280: d2b1 b93c 1b80 903d 8bfd 863d c91d 5a3d
00000290: 2a55 373d c6fe 923d 1791 893d b908 e8bc
000002a0: 2e0c 2a3c 57d1 133d ee3d 0cbd 5c76 0d3d
000002b0: 13a9 653d 6dc5 803d 37b5 24bc 38c3 0abd
000002c0: 8c1e 33bd 69a3 1a3d c16e 3bbd db55 25bd
000002d0: b458 90bc 99e8 d8bc b02d bfbc 7b3f 0fbd
000002e0: 2404 94bb d020 643d 8aaf bbbb b9f5 9d3d
000002f0: 7c7b 073d 3d39 16bd 579a e83c 14c9 fdbc
00000300: 6118 04bc b646 213d e909 74bb ab12 033c
00000310: a71f cd3c 267b 923c e5ed f93c 3d06 e43b
00000320: eafd 24bd 4fd0 a6bc 3b77 c83c 1123 45bd
00000330: 1a68 afbc 26f3 253d d766 68bc 68a7 15bd
00000340: e04c d93c b3ca 233c 2aed ea3c 44d3 683c
00000350: a1e2 51bc 8ee9 613c 9c0e 3d3d 7ea6 06bd
00000360: b04c d83b b5b2 7c3d 307b 10bd 9156 1b3d
00000370: e44d 033c 76d6 10bd cf3b f03c 6094 d8bc
00000380: b6c3 debb 7477 b03c a3ba e1bc b14c b93b
00000390: 95bc a13d 5400 093d 6ad2 3d3c f0d3 8a3d
000003a0: 43b1 02bd 736c d2bb 7cf7 1a3b 8b08 0cbd
000003b0: ebb3 4abd cacf a23b b30c cb3c 4991 8f3c
000003c0: a5ed 703d cde3 133d df54 483d 36c6 debc
000003d0: fea5 373d ea66 e83c 3580 58bd d60f 623d
000003e0: 1f9d a7bc df70 57bd 3247 c4bc e0e8 37bd
000003f0: 44e3 153d b4b0 423d 873d 963c 9598 fa3c

linear_relu_stack.2.bias f4 [256]
-0.0031083939 -0.019929174 0.042448573 0.0073179705 0.012687951 -0.03609898 -0.002453996 0.06350877
-0.057310227 0.052786298 -0.008816729 -0.01633803 0.026240798 -0.03492569 0.0049788975 0.028720126
0.02329792 -0.019922588 0.013352368 -0.017506663 -0.057161544 0.046303947 0.042109076 -0.027485779
-0.04447548 -0.011557725 0.03521451 0.04720041 0.062692784 0.00023765427 0.025490077 -0.019176997
0.05211936 -0.047065686 0.050633926 -0.004758319 -0.018917048 -0.052756444 -0.0030210363 -0.030005235
-0.009320331 0.018228665 0.06227892 -0.011955333 -0.0006787191 -0.0023105512 -0.027285205 -2.2704462e-05
-0.04585548 0.017517729 0.018735623 0.0508707 0.056894243 -0.029956672 0.059764452 0.04667268
-0.030344192 0.039179467 -0.044024814 -0.023783185 0.01105857 0.03349542 0.035924364 0.0029491696
-0.033773854 -0.033332802 0.055847213 0.0003333194 -0.041097254 -0.0050517153 0.059979018 0.005664628
-0.047855195 0.053269297 -0.043794185 0.03775605 0.0047102184 0.057140436 -0.051048115 0.005099062
0.047373287 -0.061576873 0.018166244 0.024074646 -0.0054400177 -0.04186234 -0.028681256 0.051751673
0.022704732 -0.04216561 0.036683552 -0.04376811 -0.058653127 -0.032151 -0.013481482 0.0476008
-0.03502168 -0.03865997 0.048577774 -0.050262272 0.023862554 0.035205923 0.027562812 0.024142457
0.0038380625 -0.026102517 -0.017009795 -0.05402346 -0.016107032 -0.023180159 0.0014397377 0.0047072764
-0.0058053453 0.009015231 0.054121006 -0.055493653 0.033612084 0.055394497 -0.017104829 0.0023227688
0.03366726 -0.048860498 -0.016030556 0.03978878 -0.04684315 -0.047641456 0.009669982 0.044081558
-0.022501905 0.012876822 0.002040635 0.010296204 -0.06114721 0.04420681 0.039760277 -0.010205283
0.050557848 0.0045045125 0.03190872 -0.037479904 0.05342003 0.0054785134 -0.014098436 -0.031089572
-0.006705724 -0.026419714 0.0040456606 -0.03777273 0.059969507 0.031972572 0.017645968 0.01480181
-0.023705399 0.052028537 0.016909452 -0.0032199011 -0.0104215 -0.033615373 -0.026144255 0.036025587
-0.017292535 -0.018911986 0.017085746 -0.029662885 0.05227421 -0.0037029772 -0.015306555 -0.041401137
0.04151443 0.054726593 0.022538725 0.020059295 0.0037353241 -0.021559814 0.0040295054 0.04002639
0.047253005 0.021702977 0.04451342 -0.03512038 -0.021628877 0.038673487 -0.039372955 -0.0043919603
-0.011751419 -0.0113036195 0.013129765 -0.0014917726 0.051800292 0.013565335 0.0109349 0.04265714
0.06366443 -0.044021606 0.053440332 -0.017898168 0.048298553 0.042592626 0.031248407 0.05598609
-0.015603039 0.023412844 0.05657085 -0.038949087 0.018440848 0.0026981016 -0.0048085307 0.06317623
0.041861836 -0.010625495 -0.008173283 0.0073049706 -0.045137458 -0.025786852 -0.060168985 -0.0058981217
0.05040891 -0.026928337 0.038045336 0.025415437 -0.037094265 0.03262227 0.030739184 -0.013067785
-0.037983637 -0.0096755605 0.046746466 -0.051575728 -0.048753854 0.015912833 0.003880625 -0.05960433
-0.062337123 -0.046564348 -0.050255023 -0.023572026 -0.06131409 0.037420392 0.03958754 0.05677023
-0.05200541 0.03637472 -0.057300255 -0.045189686 -0.045805935 -0.03963212 0.03733805 -0.032303374
-0.0155104045 -0.054568928 0.015117831 0.03696866 0.016318828 -0.024552612 -0.051309984 -0.019907586
00000000: 32b6 4bbb 8242 a3bc 8ede 2d3d 96cb ef3b
00000010: 20e1 4f3c 86dc 13bd 39d3 20bb e310 823d
00000020: 21be 6abd 7236 583d 0b74 10bc 55d7 85bc
00000030: f1f6 d63c 3e0e 0fbd 0526 a33b 7846 eb3c
00000040: 48db be3c b234 a3bc e4c3 5a3c 226a 8fbc
00000050: 3922 6abd 35a9 3d3d 917a 2c3d db29 e1bc
00000060: ec2b 36bd 9d5c 3dbc 173d 103d 3855 413d
00000070: 1365 803d d532 7939 91d0 d03c 1419 9dbc
00000080: 1c7b 553d f3c7 40bd 8565 4f3d aceb 9bbb
00000090: edf7 9abc 2417 58bd 94fc 45bb 8acd f5bc
000000a0: 4db4 18bc 4854 953c 2e18 7f3d 4de0 43bc
000000b0: 11ec 31ba 9e6c 17bb 3985 dfbc 7675 beb7
000000c0: f5d2 3bbd 5781 8f3c 737b 993c cc5d 503d
000000d0: f009 693d b267 f5bc 92cb 743d da2b 3f3d
000000e0: 6294 f8bc a67a 203d 5d53 34bd f4d4 c2bc
000000f0: 012f 353c 7e32 093d 6d25 133d db46 413b
00000100: 7456 0abd fa87 08bd 0cc0 643d 5fc1 ae39
00000110: 9855 28bd dc88 a5bb 8fac 753d 589e b93b
00000120: cf03 44bd e830 5a3d 8861 33bd 16a6 1a3d
00000130: 2d58 9a3b 170c 6a3d d417 51bd 0816 a73b
00000140: 7e0a 423d 0838 7cbd 60d1 943c 3138 c53c
00000150: 2d42 b2bb d877 2bbd f4f4 eabc 90f9 533d
00000160: 46ff b93c d9b5 2cbd 7e41 163d 3146 33bd
00000170: 433e 70bd c4b0 03bd 6fe1 5cbc 0ef9 423d
00000180: e572 0fbd eb59 1ebd 7df9 463d d0df 4dbd
00000190: 677b c33c 1634 103d 68cb e13c 67c6 c53c
000001a0: 0188 7b3b f2d4 d5bc 2058 8bbc b447 5dbd
000001b0: e5f2 83bc 51e4 bdbc 95b5 bc3a 7f3f 9a3b
000001c0: c43a bebb 9fb4 133c fdad 5d3d 504d 63bd
000001d0: d3ac 093d 57e5 623d 6d1f 8cbc 9839 183b
000001e0: aee6 093d f221 48bd 8352 83bc 8ff9 223d
000001f0: 9ade 3fbd b023 43bd d86e 1e3c dd8e 343d
00000200: ea55 b8bc 4ef9 523c 2dbc 053b 69b1 283c
00000210: 7f75 7abd 3312 353d acdb 223d 0f34 27bc
00000220: bf15 4f3d 979a 933b b8b2 023d 8784 19bd
00000230: f6ce 5a3d 1a85 b33b 20fd 66bc 8faf febc
00000240: b1bb dbbb 286e d8bc 7691 843b 94b7 1abd
00000250: 96a2 753d acf5 023d 478e 903c 4a83 723c
00000260: d331 c2bc e01b 553d b185 8a3c fa04 53bb
00000270: f0be 2abc 46b0 09bd 7a2c d6bc 918f 133d
00000280: 13a9 8dbc 4fed 9abc 68f7 8b3c 94ff f2bc
00000290: 7b1d 563d a6ad 72bb 58c8 7abc 3d94 29bd
000002a0: 090b 2a3d fe28 603d 22a3 b83c 6453 a43c
000002b0: 57cc 743b 359e b0bc f109 843b b6f2 233d
000002c0: 5e8c 413d 71ca b13c b453 363d 63da 0fbd
000002d0: 0b2f b1bc 1768 1e3d 8945 21bd 6fea 8fbb
000002e0: 0689 40bc d132 39bc 3a1e 573c 9587 c3ba
000002f0: 8b2c 543d 2441 5e3c 4b28 333c 41b9 2e3d
00000300: 7f62 823d 0050 34bd 40e4 5a3d 2e9f 92bc
00000310: b4d4 453d 9b75 2e3d a9fc ff3c ac51 653d
00000320: e4a3 7fbc 4bcc bf3c d6b6 673d 1489 1fbd
00000330: 4311 973c a2d2 303b e190 9dbb 8a62 813d
00000340: 5177 2b3d 8e16 2ebc 3ce9 05bc 895e ef3b
00000350: 0ee2 38bd f33e d3bc c173 76bd 0845 c1bb
00000360: 9379 4e3d d198 dcbc 6dd5 1b3d 0934 d03c
00000370: 28f0 17bd ee9e 053d bed0 fb3c 431a 56bc
00000380: bb94 1bbd 3e86 1ebc 3979 3f3d 1241 53bd
00000390: 1fb2 47bd a15b 823c 1552 7e3b ac23 74bd
000003a0: 3655 7fbd 42ba 3ebd 36d8 4dbd 1f1a c1bc
000003b0: 7c24 7bbd 2046 193d 8b26 223d e787 683d
000003c0: a003 55bd a9fd 143d acb3 6abd d218 39bd
000003d0: 019f 3bbd 4a55 22bd c8ef 183d 8b50 04bd
000003e0: 5a1f 7ebc ab83 5fbd c7b0 773c 736c 173d
000003f0: 10af 853c 8f22 c9bc 6b2a 52bd 3c15 a3bc

linear_relu_stack.4.weight f4 [10, 256]
0.056441564 0.08384095 0.026383048 -0.093286 -0.119776696 -0.08662394 -0.031911258 0.019025253
-0.039122947 0.01827644 0.003245842 -0.044075433 0.061057962 -0.018310891 0.030115118 -0.059552733
0.005191984 -0.020754797 -0.0035469765 0.14743908 0.022715017 -0.02142952 0.05641566 0.04953583
0.075338386 -0.030849194 -0.004408059 -0.015589551 -0.032657646 -0.020486629 -0.017572511 -0.05900048
0.018734014 0.02419088 -0.057461128 -0.08509872 -0.002605594 -0.009958754 -0.034028698 0.027451701
-0.05375524 -0.0024560238 -0.110701665 0.1445058 -0.02190104 -0.081369825 0.008628098 -0.020944843
-0.07308996 -0.08536714 -0.042086888 0.06973105 0.083395 -0.009482973 0.014630927 0.02703687
0.070150085 0.07995994 -0.11083836 0.019853093 -0.0077371565 -0.023942074 0.029287461 0.0232652
0.05719877 -0.10199043 -0.033659637 -0.05814039 0.026518123 -0.018781569 -0.028343733 -0.03787883
0.055578697 -0.052916374 -0.001435838 0.123780206 -0.086425655 0.08795901 -0.042309143 0.018364603
0.009897815 -0.037446987 -0.03467182 -0.04147315 -0.09283943 0.048999373 0.010689731 0.02289323
0.05062882 -0.030060707 -0.0689147 0.015833322 -0.017097883 0.007276716 -0.044272467 0.023671405
-0.044433895 -0.040924393 -0.09557028 0.08610604 0.10049311 0.054768108 -0.012319076 -0.038141206
-0.09077556 -0.07859756 0.02993549 -0.08286061 -0.0682535 0.066125594 -0.08452673 0.077804856
-0.027732218 -0.003725314 0.045041 0.015347913 0.04634125 -0.020934006 0.050231364 -0.01719157
-0.1257474 -0.07724867 0.040092178 -0.043781646 0.04091975 -0.05359322 -0.012615695 -0.064091444
0.081801 -0.10498142 0.043709185 -0.057074897 -0.032433912 -0.07279324 0.02116196 -0.052495126
-0.024634352 -0.0658712 -0.03325929 -0.0054470976 -0.01713788 0.050167765 0.042352468 -0.007138965
0.09670122 -0.07979679 -0.06080907 -0.10232965 -0.0597614 -0.006902932 -0.08874844 0.05104904
-0.012412417 0.04499751 0.027415484 -0.06355468 0.0011131986 0.11218159 -0.037653472 0.032977823
0.104520164 -0.015773743 0.032762688 0.019662796 -0.080717094 -0.00949505 0.0816586 0.03468461
0.057539903 0.052685913 -0.00898304 -0.05210578 0.021766547 0.07114106 0.06955173 -0.069359906
0.041186526 0.016326357 0.088197246 -0.059755582 -0.06413799 -0.04573209 -0.04736115 -0.10777163
0.033131495 -0.06750746 0.011515946 -0.048292037 0.029941516 -0.017973736 0.038565516 -0.0127175115
0.024591757 0.056752898 -0.08632405 -0.07398106 -0.07016472 0.037094723 0.02045541 -0.11779327
-0.013063465 0.010447707 0.096354514 -0.047681395 0.049785897 0.12600908 0.07800753 -0.022534769
-0.047595017 0.14574027 -0.034469068 -0.023987424 0.09361909 -0.036598597 0.058853477 0.050942067
0.052071556 -0.004467274 0.116724335 0.017206369 0.10682778 0.037134685 0.009547271 0.06229673
-0.036689628 0.016911665 0.009794523 -0.029503446 -0.021544188 0.04820822 -0.02852012 0.0077522667
-0.053503945 0.09886958 0.055278163 -0.041685004 0.10141993 -0.17314342 -0.041547745 0.002437476
0.05574599 -0.10735646 0.04874153 -0.021001382 -0.011683105 0.037048653 -0.05364755 0.04936913
-0.087123066 0.021503849 -0.06729135 -0.034168404 0.05521312 0.013194278 -0.052037485 0.02401949
00000000: 452f 673d ceb4 ab3d 4321 d83c bb0c bfbd
00000010: 7c4d f5bd e467 b1bd 61b5 02bd d9da 9b3c
00000020: 623f 20bd 79b8 953c 31b8 543b 7188 34bd
00000030: ea17 7a3d b900 96bc fbb3 f63c 91ed 73bd
00000040: 8521 aa3b f705 aabc 6474 68bb 45fa 163e
00000050: d814 ba3c f68c afbc 1b14 673d 15e6 4a3d
00000060: 034b 9a3d 73b7 fcbc 7b71 90bb 516b 7fbc
00000070: 06c4 05bd 93d3 a7bc 3af4 8fbc 7daa 71bd
00000080: 1378 993c f42b c63c 5c5c 6bbd 3d48 aebd
00000090: 9dc2 2abb 0b2a 23bc ad61 0bbd 64e2 e03c
000000a0: 742e 5cbd 3ef5 20bb 8eb7 e2bd 54f9 133e
000000b0: cf69 b3bc 39a5 a6bd de5c 0d3c 8594 abbc
000000c0: 30b0 95bd f8d4 aebd 4d63 2cbd 27cf 8e3d
000000d0: ffca aa3d 795e 1bbc 8eb6 6f3c 6d7c dd3c
000000e0: d9aa 8f3d 09c2 a33d 39ff e2bd f4a2 a23c
000000f0: f987 fdbb 2b22 c4bc 42ec ef3c a996 be3c
00000100: 4249 6a3d 5ce0 d0bd b0de 09bd 9e24 6ebd
00000110: 893c d93c cedb 99bc 1e31 e8bc d526 1bbd
00000120: 7da6 633d d7be 58bd bb32 bcba 7a80 fd3d
00000130: efff b0bd da23 b43d 5a4c 2dbd 5d71 963c
00000140: 722a 223c 0362 19bd 0a04 0ebd c0df 29bd
00000150: 9922 bebd 91b3 483d fb23 2f3c 958a bb3c
00000160: 2a60 4f3d df41 f6bc 2623 8dbd e2b4 813c
00000170: dc10 8cbc 8571 ee3b 0c57 35bd 89ea c13c
00000180: 5100 36bd 56a0 27bd 5aba c3bd 5d58 b03d
00000190: 55cf cd3d 8654 603d f3d5 49bc f439 1cbd
000001a0: 89e8 b9bd c2f7 a0bd 463b f53c d3b2 a9bd
000001b0: 7ec8 8bbd db6c 873d 5a1c adbd 2758 9f3d
000001c0: ad2e e3bc 6624 74bb e97c 383d d075 7b3c
000001d0: 53d0 3d3d cb7d abbc 67bf 4d3d 56d5 8cbc
000001e0: edc3 00be 8d34 9ebd b237 243d 6254 33bd
000001f0: 789b 273d 9084 5bbd 0fb2 4ebc 6042 83bd
00000200: 4887 a73d 8000 d7bd 6708 333d 5ec7 69bd
00000210: 6cd9 04bd 9f14 95bd d95b ad3c 2105 57bd
00000220: fbcd c9bc 7be7 86bd e53a 08bd 917d b2bb
00000230: bd64 8cbc b77c 4d3d c879 2d3d fbed e9bb
00000240: 4a0b c63d 806c a3bd ee12 79bd 3592 d1bd
00000250: 5fc8 74bd fe31 e2bb bec1 b5bd cc18 513d
00000260: 735d 4bbc 4f4f 383d 7096 e03c f528 82bd
00000270: bfe8 913a 76bf e53d 873a 1abd c113 073d
00000280: ab0e d63d f037 81bc 2b32 063d df13 a13c
00000290: 014f a5bd 2091 1bbc a03c a73d 7311 0e3d
000002a0: f6ae 6b3d 2fcd 573d 9a2d 13bc df6c 55bd
000002b0: c24f b23c 67b2 913d 2371 8e3d 910c 8ebd
000002c0: 34b3 283d dabe 853c c2a0 b43d 45c2 74bd
000002d0: c75a 83bd 9251 3bbd c4fd 41bd 5fb7 dcbd
000002e0: e4b4 073d 5a41 8abd 61ad 3c3c dfcd 45bd
000002f0: e947 f53c a83d 93bc e0f6 1d3d 1c5d 50bc
00000300: a774 c93c ba75 683d aaca b0bd 6283 97bd
00000310: 85b2 8fbd a3f0 173d 1b92 a73c 993d f1bd
00000320: 2508 56bc dc2c 2b3c 8455 c53d 914d 43bd
00000330: 4cec 4b3d 8608 013e 69c2 9f3d d69a b8bc
00000340: fef2 42bd f03c 153e 702f 0dbd 4681 c4bc
00000350: 5ebb bf3d 69e8 15bd 5810 713d a1a8 503d
00000360: fc48 553d 3662 92bb 2b0d ef3d 5ff4 8c3c
00000370: 86c8 da3d 8a1a 183d 286c 1c3c db2a 7f3d
00000380: dd47 16bd 558a 8a3c 3579 203c 36b1 f1bc
00000390: 707d b0bc fc75 453d 07a3 e9bc ba06 fe3b
000003a0: f426 5bbd 227c ca3d 5b6b 623d e5bd 2abd
000003b0: 41b5 cf3d 824c 31be f82d 2abd 10be 1f3b
000003c0: e855 643d b4dd dbbd 33a5 473d 170b acbc
000003d0: 7e6a 3fbc 54c0 173d 89bd 5bbd 4937 4a3d
000003e0: 946d b2bd d728 b03c 0cd0 89bd 2bf4 0bbd
000003f0: 2727 623d d02c 583c 4225 55bd 86c4 c43c

linear_relu_stack.4.bias f4 [10]
-0.0675802 0.056114454 0.05060504 -0.026827276 -0.013561439 0.058116883 -0.0675791 0.056782804
-0.028140295 0.02879762
00000000: 7d67 8abd 45d8 653d 3b47 4f3d e0c4 dbbc
00000010: cc30 5ebc f80b 6e3d e966 8abd 1695 683d
00000020: 7a86 e6bc fde8 eb3c
